models/mlp_regressor_state_dict.pth (torch, 13809 bytes, 1 tensors)

layers.0.weight f4 [1, 3072]
-0.0750986 -0.07076471 -0.07428001 -0.07309063 -0.07391872 -0.07199174 -0.07297246 -0.072526194
-0.07375237 -0.07398092 -0.07427258 -0.072542764 -0.070680395 -0.074858524 -0.07314177 -0.072063446
-0.07233381 -0.07192743 -0.0716251 -0.0733035 -0.07311688 -0.07499921 -0.07532763 -0.07481762
-0.0718667 -0.07172204 -0.07122536 -0.07115838 -0.073118724 -0.071320824 -0.07177544 -0.07475935
-0.073525734 -0.07555845 -0.07187484 -0.07230451 -0.0708318 -0.07364825 -0.07183021 -0.071721606
-0.073040664 -0.0729997 -0.07054361 -0.0734745 -0.07092621 -0.07251208 -0.07406655 -0.07407948
-0.07364422 -0.07120355 -0.07130235 -0.073584825 -0.07515073 -0.07227385 -0.07312221 -0.07501901
-0.07230145 -0.07340707 -0.07154552 -0.072391175 -0.07432738 -0.072827466 -0.07472699 -0.07190836
-0.07246522 -0.07190496 -0.07468249 -0.07380396 -0.073932074 -0.074972294 -0.07509347 -0.07476145
-0.07143618 -0.07395118 -0.073828906 -0.072441 -0.07246318 -0.07221965 -0.07400888 -0.07131058
-0.07270222 -0.073844224 -0.07144061 -0.075136095 -0.07436889 -0.071609214 -0.07246675 -0.07377167
-0.07301753 -0.07360361 -0.07261192 -0.07221636 -0.0714988 -0.070894435 -0.07437853 -0.07482483
-0.073597275 -0.07375317 -0.074698806 -0.07131022 -0.0708655 -0.071284495 -0.07416248 -0.07306038
-0.074693955 -0.07354436 -0.071237735 -0.072694466 -0.07263289 -0.07516468 -0.07217204 -0.071657375
-0.07401629 -0.07120084 -0.07232565 -0.07501546 -0.07454917 -0.07280858 -0.075154915 -0.074720934
-0.07203796 -0.0737588 -0.072877824 -0.07384204 -0.071685426 -0.071047015 -0.07144846 -0.075218536
-0.07349605 -0.072103344 -0.07199102 -0.07308115 -0.07168373 -0.07280978 -0.0725548 -0.07177255
-0.07161126 -0.07474516 -0.0739414 -0.072083846 -0.07163787 -0.07351663 -0.0707031 -0.07326223
-0.07376973 -0.07345697 -0.07459632 -0.072772376 -0.07480056 -0.07042746 -0.07480899 -0.07120687
-0.07394182 -0.07307846 -0.07434558 -0.071267515 -0.071791515 -0.07458517 -0.07469893 -0.07224888
-0.073317744 -0.07275433 -0.072510205 -0.0736556 -0.07096195 -0.07264614 -0.074062966 -0.07230424
-0.07509316 -0.07417997 -0.07227508 -0.07397696 -0.07531811 -0.07165753 -0.07262852 -0.07189964
-0.0722424 -0.07476593 -0.073693015 -0.07421895 -0.07103851 -0.07401872 -0.07457285 -0.07398902
-0.0730393 -0.07197605 -0.071431056 -0.07160257 -0.072578005 -0.07073866 -0.07165245 -0.071965955
-0.07504699 -0.07253987 -0.07351825 -0.074813694 -0.0737706 -0.07155891 -0.071887486 -0.07091751
-0.07143936 -0.07271065 -0.07169944 -0.0724841 -0.07350325 -0.07411499 -0.07088504 -0.071860366
-0.071499094 -0.07372938 -0.07512675 -0.07234663 -0.07263777 -0.07405512 -0.07235061 -0.07248591
-0.07106619 -0.073336005 -0.074393526 -0.07089315 -0.0725301 -0.07347002 -0.07201483 -0.070358455
-0.07216588 -0.07247541 -0.071314104 -0.07411675 -0.070824035 -0.07473036 -0.073001735 -0.07069356
-0.0717939 -0.073855676 -0.07192302 -0.07196137 -0.07433528 -0.07309901 -0.07492039 -0.073350824
-0.073350504 -0.07394468 -0.07387392 -0.07111657 -0.0731704 -0.07562804 -0.07212382 -0.07536654
-0.07456403 -0.07172162 -0.07088977 -0.07335129 -0.07423103 -0.07184021 -0.07504698 -0.07194814
00000000: 4bcd 99bd 17ed 90bd 1e20 98bd 8ab0 95bd
00000010: b362 97bd 6870 93bd 9672 95bd 9d88 94bd
00000020: 7c0b 97bd 4f83 97bd 391c 98bd 4d91 94bd
00000030: e2c0 90bd 6d4f 99bd 5acb 95bd 0096 93bd
00000040: c023 94bd b04e 93bd 2eb0 92bd 2520 96bd
00000050: 4ebe 95bd 3099 99bd 5f45 9abd fb39 99bd
00000060: d92e 93bd 01e3 92bd 9ade 91bd 7cbb 91bd
00000070: 45bf 95bd a710 92bd 00ff 92bd 6e1b 99bd
00000080: a994 96bd 63be 9abd 1e33 93bd 6314 94bd
00000090: 4310 91bd e5d4 96bd b81b 93bd c7e2 92bd
000000a0: 5896 95bd de80 95bd 2b79 90bd cc79 96bd
000000b0: c341 91bd 3781 94bd 34b0 97bd fbb6 97bd
000000c0: c8d2 96bd 2bd3 91bd f706 92bd a4b3 96bd
000000d0: a0e8 99bd 5004 94bd 19c1 95bd 91a3 99bd
000000e0: c812 94bd 7256 96bd 7586 92bd d341 94bd
000000f0: f438 98bd 9126 95bd 770a 99bd b144 93bd
00000100: a568 94bd e842 93bd 22f3 98bd 8826 97bd
00000110: b369 97bd 138b 99bd 9bca 99bd 881c 99bd
00000120: 224d 92bd b773 97bd 9c33 97bd f25b 94bd
00000130: 9367 94bd e5e7 93bd f891 97bd 480b 92bd
00000140: e7e4 94bd a43b 97bd 744f 92bd f4e0 99bd
00000150: b74e 98bd daa7 92bd 7369 94bd 9a15 97bd
00000160: 378a 95bd 7dbd 96bd 8fb5 94bd 2ce6 93bd
00000170: f66d 92bd 1a31 91bd c553 98bd c33d 99bd
00000180: 2bba 96bd e70b 97bd b0fb 98bd 180b 92bd
00000190: ee21 91bd 9bfd 91bd 80e2 97bd aea0 95bd
000001a0: 25f9 98bd 6d9e 96bd 17e5 91bd d6e0 94bd
000001b0: 8dc0 94bd f1ef 99bd efce 93bd 1ac1 92bd
000001c0: da95 97bd bfd1 91bd 781f 94bd b5a1 99bd
000001d0: 3cad 98bd aa1c 95bd d2ea 99bd 4a07 99bd
000001e0: a388 93bd db0e 97bd f840 95bd 7f3a 97bd
000001f0: cfcf 92bd 1981 91bd 9253 92bd 2d0c 9abd
00000200: 1985 96bd ebaa 93bd 0770 93bd 92ab 95bd
00000210: ebce 92bd 4b1d 95bd 9c97 94bd 7dfd 92bd
00000220: eda8 92bd fe13 99bd 976e 97bd b2a0 93bd
00000230: e0b6 92bd e38f 96bd c9cc 90bd 820a 96bd
00000240: 9614 97bd 9c70 96bd f5c5 98bd af09 95bd
00000250: 0931 99bd 463c 90bd 7535 99bd e8d4 91bd
00000260: cf6e 97bd 29aa 95bd 7f42 98bd b4f4 91bd
00000270: 6e07 93bd 1cc0 98bd c1fb 98bd 39f7 93bd
00000280: 9d27 96bd 3900 95bd 3b80 94bd bfd8 96bd
00000290: 8054 91bd 80c7 94bd 53ae 97bd 3f14 94bd
000002a0: 71ca 99bd abeb 97bd f504 94bd 3b81 97bd
000002b0: 6240 9abd 2fc1 92bd 43be 94bd 1e40 93bd
000002c0: d3f3 93bd e11e 99bd 5dec 96bd 1b00 98bd
000002d0: a37c 91bd 2097 97bd a6b9 98bd 8e87 97bd
000002e0: a195 95bd 2e68 93bd 724a 92bd 5ea4 92bd
000002f0: c7a3 94bd 6edf 90bd 85be 92bd e362 93bd
00000300: 3cb2 99bd c98f 94bd bc90 96bd ec37 99bd
00000310: 0a15 97bd 7a8d 92bd bf39 93bd 333d 91bd
00000320: cd4e 92bd 52e9 94bd 28d7 92bd 8b72 94bd
00000330: df88 96bd 9ac9 97bd 2d2c 91bd 872b 93bd
00000340: 1e6e 92bd 6eff 96bd 0edc 99bd 782a 94bd
00000350: 1cc3 94bd 36aa 97bd 8e2c 94bd 7e73 94bd
00000360: 278b 91bd 3031 96bd a25b 98bd 6e30 91bd
00000370: a98a 94bd 7377 96bd 837c 93bd 1818 90bd
00000380: b4cb 93bd fd6d 94bd 210d 92bd 86ca 97bd
00000390: 310c 91bd 3b0c 99bd ef81 95bd c9c7 90bd
000003a0: ae08 93bd a541 97bd 604c 93bd 7c60 93bd
000003b0: 183d 98bd efb4 95bd dd6f 99bd f538 96bd
000003c0: ca38 96bd 4f70 97bd 364b 97bd 90a5 91bd
000003d0: 5dda 95bd e0e2 9abd a7b5 93bd c659 9abd
000003e0: 07b5 98bd c9e2 92bd a82e 91bd 3339 96bd
000003f0: 7006 98bd f620 93bd 3bb2 99bd 8c59 93bd
