models/mlp_regressor_state_dict.pth (torch, 13809 bytes, 1 tensors)

layers.0.weight f4 [1, 3072]
000000 61 e4 94 bd 35 ff 94 bd 23 e2 94 bd 18 01 9c bd
       -0.07270122 -0.072752394 -0.07269695 -0.07617396
000010 3b f3 95 bd 96 4c 92 bd 2f 74 95 bd 94 6c 93 bd
       -0.07321783 -0.07143514 -0.07297551 -0.07198444
000020 ec 0f 97 bd e6 d6 94 bd 4b 63 95 bd dc f2 97 bd
       -0.07376084 -0.07267551 -0.07294329 -0.074193686
000030 04 34 97 bd 61 d5 94 bd 9e 98 94 bd 8d 78 91 bd
       -0.07382968 -0.07267261 -0.07255672 -0.07103071
000040 48 21 96 bd 62 7f 94 bd 6d 5d 90 bd 6a 95 98 bd
       -0.07330567 -0.07250859 -0.070490696 -0.074503735
000050 a1 58 95 bd 18 5e 92 bd 29 7a 92 bd d4 61 92 bd
       -0.07292295 -0.07146853 -0.071522065 -0.071475655
000060 c3 40 9a bd fb 8b 93 bd 7c 59 99 bd 84 eb 91 bd
       -0.075318836 -0.072044335 -0.07487771 -0.07124999
000070 ab fc 96 bd bb 17 93 bd 9c 7f 98 bd 0d e8 95 bd
       -0.07372411 -0.071822606 -0.074462146 -0.07319651
000080 99 e9 91 bd 12 c9 92 bd 8d 1a 99 bd 0b 2e 90 bd
       -0.07124633 -0.07167257 -0.07475767 -0.07040032
000090 8b 23 94 bd 2d f4 97 bd e8 ee 98 bd fb 03 96 bd
       -0.07233342 -0.0741962 -0.07467443 -0.07324978
0000a0 2d 55 95 bd d3 d4 90 bd 9e 36 96 bd 0a ed 96 bd
       -0.072916366 -0.07071843 -0.07334636 -0.0736943
0000b0 60 5b 98 bd b7 a0 91 bd 0a 94 96 bd bf 09 9b bd
       -0.074393034 -0.07110732 -0.07352455 -0.07570218
0000c0 81 c6 95 bd 29 48 92 bd bd 0c 96 bd f2 43 96 bd
       -0.07313252 -0.0714267 -0.073266484 -0.07337178
0000d0 58 c6 90 bd 0a fd 98 bd 8e 03 96 bd 85 4e 97 bd
       -0.07069081 -0.07470138 -0.07324897 -0.07388023
0000e0 78 e8 94 bd 1d 5c 91 bd 80 72 93 bd 41 eb 93 bd
       -0.072709024 -0.07097647 -0.071995735 -0.072226055
0000f0 91 7d 90 bd df f4 96 bd 8a 66 96 bd a7 90 96 bd
       -0.070552 -0.07370924 -0.073437765 -0.07351809
000100 72 77 94 bd 4b 27 96 bd 9e 5c 94 bd 88 81 94 bd
       -0.07249345 -0.07331713 -0.07244228 -0.072512686
000110 01 cc 97 bd 45 8c 96 bd 93 1c 99 bd 02 d2 98 bd
       -0.074119575 -0.07350973 -0.07476153 -0.07461931
000120 97 ad 91 bd ec 0f 94 bd 31 4b 93 bd 89 41 9b bd
       -0.07113188 -0.07229599 -0.07192076 -0.07580859
000130 89 39 93 bd 22 27 99 bd e9 69 93 bd 33 bb 93 bd
       -0.07188708 -0.07478167 -0.07197935 -0.0721344
000140 e0 82 98 bd 5b a5 90 bd ce 5e 96 bd 4b 18 93 bd
       -0.074468374 -0.07062789 -0.07342301 -0.07182368
000150 6c e1 94 bd ea 5f 93 bd 9c 9b 91 bd 91 4b 95 bd
       -0.07269558 -0.071960285 -0.07109758 -0.07289804
000160 ad ad 92 bd c8 1e 93 bd 23 88 99 bd a5 ce 93 bd
       -0.07162032 -0.071836054 -0.07496669 -0.07217149
000170 16 dd 97 bd 6a 13 90 bd 7b 24 99 bd 80 5c 96 bd
       -0.07415216 -0.07034953 -0.07477661 -0.07341862
000180 2a 04 92 bd 67 ac 97 bd 6f 2d 91 bd b4 b9 92 bd
       -0.071297005 -0.0740593 -0.07088744 -0.07164326
000190 30 18 8f bd d2 6a 98 bd 29 30 95 bd 4c b2 96 bd
       -0.06987035 -0.07442249 -0.072845764 -0.07358226
0001a0 fc 5d 95 bd c9 0e 98 bd 6d 68 93 bd 34 3f 94 bd
       -0.07293317 -0.07424695 -0.07197652 -0.072386175
0001b0 48 82 98 bd 25 e8 99 bd cf f8 93 bd 9e 0a 97 bd
       -0.07446724 -0.07514981 -0.07225191 -0.07375072
0001c0 0b be 90 bd 21 53 92 bd a3 54 93 bd e5 95 98 bd
       -0.07067498 -0.07144762 -0.071938775 -0.07450465
0001d0 ed 43 95 bd 6d 1b 97 bd 13 ec 98 bd da 90 92 bd
       -0.072883464 -0.07378278 -0.074669026 -0.071565345
0001e0 55 a9 99 bd 16 67 91 bd 86 92 94 bd 57 73 92 bd
       -0.07503001 -0.0709974 -0.0725451 -0.071509056
0001f0 37 ca 91 bd a1 52 98 bd ab 5a 92 bd d0 09 94 bd
       -0.071186475 -0.07437635 -0.071462 -0.07228434
000200 93 0f 98 bd 66 cc 93 bd 56 55 94 bd 5b 27 92 bd
       -0.074248455 -0.0721672 -0.07242839 -0.07136413
000210 8f c9 97 bd 62 39 93 bd ab 07 91 bd 42 3c 90 bd
       -0.07411491 -0.07188679 -0.07081541 -0.07042743
000220 75 1d 92 bd e5 c1 95 bd d2 b4 90 bd b3 c1 8d bd
       -0.07134525 -0.07312373 -0.07065739 -0.06921711
000230 c8 f6 97 bd 7d fc 94 bd d4 ad 8d bd 29 7b 92 bd
       -0.07420117 -0.07274721 -0.06917921 -0.07152397
000240 d1 6d 91 bd b6 1c 91 bd 75 2a 97 bd 86 3d 96 bd
       -0.07101024 -0.07085554 -0.07381145 -0.073359534
000250 a6 f4 95 bd 83 f1 90 bd 9b d5 91 bd 07 cf 98 bd
       -0.073220536 -0.07077315 -0.0712082 -0.07461362
000260 7f 83 95 bd 88 fe 97 bd 61 0f 99 bd a5 23 8f bd
       -0.073004715 -0.07421595 -0.074736364 -0.069892205
000270 d7 46 97 bd c5 86 94 bd c6 6b 95 bd 9a 77 95 bd
       -0.073865585 -0.07252268 -0.07295947 -0.07298203
000280 18 36 95 bd bc 2f 90 bd bd 08 97 bd a7 de 92 bd
       -0.07285708 -0.070403546 -0.073747136 -0.07171374
000290 fe 48 90 bd 2e 02 92 bd af e6 98 bd 87 ec 98 bd
       -0.07045172 -0.07129322 -0.074658744 -0.07466989
0002a0 07 4e 98 bd 0b 7d 95 bd 28 72 95 bd 08 27 94 bd
       -0.074367575 -0.07299241 -0.07297164 -0.07234007
0002b0 f8 8f 91 bd 65 e7 93 bd b7 a5 97 bd 98 dc 96 bd
       -0.07107538 -0.072218694 -0.074046545 -0.07366294
0002c0 a5 ec 91 bd d6 50 93 bd d1 bd 93 bd ee ef 98 bd
       -0.071252145 -0.071931526 -0.07213939 -0.07467638
0002d0 0c de 95 bd 89 62 93 bd 40 77 99 bd c9 d6 91 bd
       -0.07317743 -0.071965285 -0.07493448 -0.07121045
0002e0 9d 09 90 bd 28 b8 96 bd 66 24 96 bd 7b fb 95 bd
       -0.070330836 -0.07359344 -0.07331161 -0.07323357
0002f0 6e 97 94 bd 4f ab 95 bd 64 70 91 bd d7 30 9a bd
       -0.072554454 -0.07308065 -0.07101515 -0.07528847
000300 66 f0 95 bd 1b 9d 96 bd 6c d2 92 bd 0e 02 91 bd
       -0.07321243 -0.07354184 -0.07169041 -0.0708047
000310 f7 09 97 bd e7 31 92 bd 7a bd 99 bd 45 08 93 bd
       -0.073749475 -0.07138424 -0.07506843 -0.07179312
000320 77 6d 97 bd 55 d3 94 bd 67 77 98 bd 01 e8 97 bd
       -0.07393926 -0.07266871 -0.07444649 -0.07417298
000330 64 90 99 bd 03 fb 93 bd 64 ba 94 bd 7e 79 91 bd
       -0.074982435 -0.07225611 -0.07262114 -0.07103251
000340 f2 08 98 bd 60 e3 97 bd 07 f1 93 bd 5e ea 90 bd
       -0.07423581 -0.07416415 -0.07223707 -0.07075952
000350 d2 26 96 bd a3 ff 90 bd f9 45 94 bd 50 3b 91 bd
       -0.07331623 -0.07080009 -0.07239909 -0.07091391
000360 4d 1b 92 bd 7c 28 91 bd 7b 44 98 bd 22 cc 96 bd
       -0.071341135 -0.070878 -0.074349366 -0.07363154
000370 43 58 93 bd 53 7d 93 bd 9e 2d 96 bd b7 8d 91 bd
       -0.07194569 -0.07201638 -0.073329195 -0.07107108
000380 56 dd 96 bd 11 14 91 bd 02 66 95 bd 02 bd 99 bd
       -0.07366435 -0.070839055 -0.07294847 -0.075067535
000390 ae 99 96 bd 76 32 9b bd 8e 38 95 bd 89 d3 97 bd
       -0.07353531 -0.07577984 -0.072861776 -0.07413394
0003a0 bb f4 95 bd 6f 1b 96 bd c3 20 99 bd 73 57 95 bd
       -0.07322069 -0.07329451 -0.07476952 -0.0729207
0003b0 ea 05 95 bd 70 c0 92 bd be b7 91 bd 6c 7f 98 bd
       -0.07276519 -0.07165611 -0.07115124 -0.07446179
0003c0 39 50 93 bd f7 4d 94 bd da d8 98 bd a0 68 97 bd
       -0.07193036 -0.07241433 -0.07463236 -0.073930025
0003d0 90 1a 93 bd de 61 94 bd 8c 18 94 bd b5 0b 98 bd
       -0.07182801 -0.07245229 -0.072312444 -0.07424108
0003e0 94 93 93 bd 39 de 93 bd a1 aa 9a bd 1b d7 95 bd
       -0.07205883 -0.0722012 -0.07552076 -0.07316419
0003f0 92 bc 95 bd 63 18 96 bd b0 a6 97 bd c4 9b 97 bd
       -0.073113576 -0.0732887 -0.0740484 -0.07402757
