models/mlp_regressor_state_dict.pth (torch, 13809 bytes, 1 tensors)

layers.0.weight f4 [1, 3072]
0	0xbc3620fc	-0.0111162625
1	0x3b825468	0.003977347
2	0xbc41ce30	-0.011828944
3	0xbd313d09	-0.0432711
4	0xbb95fb80	-0.0045771003
5	0x3cb0a54e	0.021563198
6	0xbba87cf8	-0.0051418506
7	0xbcb245c1	-0.021761777
8	0x3ab78ae0	0.001400318
9	0x3c042288	0.0080648735
10	0xbc4a0768	-0.012330867
11	0xbd0c60ab	-0.034271877
12	0xbcc21ac5	-0.023694405
13	0xbbec18d8	-0.00720511
14	0x3c8262b8	0.015916213
15	0x3d20f9c7	0.039300706
16	0x3a570240	0.00082019344
17	0x3c81a006	0.015823375
18	0x3cd04e7e	0.025428053
19	0xbc9dde1a	-0.019270945
20	0xbc7042d8	-0.014664374
21	0x3cf02472	0.029314253
22	0x3d019b93	0.031642508
23	0x3c2b9398	0.010472201
24	0xbd0be379	-0.03415248
25	0x3ccd7cfe	0.025084015
26	0xbd159c91	-0.036526266
27	0x3cb4f47e	0.02208924
28	0x3baba088	0.0052376427
29	0x3c69e33c	0.014275368
30	0xbd3072be	-0.043078177
31	0xbc7e9154	-0.015537579
32	0x3c99c1ae	0.018769111
33	0x3d0b53fd	0.034015644
34	0xbc4f4be8	-0.012652375
35	0x3d216c87	0.03941014
36	0xbc219590	-0.009862319
37	0xbcda5cc2	-0.026655558
38	0xbc9cc74b	-0.019137999
39	0x3b343a90	0.0027500726
40	0xbc00b150	-0.007854775
41	0x3caf3a66	0.021390151
42	0xbcc85c30	-0.02445802
43	0xbc4dfa8c	-0.012571942
44	0xbd33647c	-0.043797
45	0x3d13c17d	0.036073197
46	0xbc083e98	-0.008315705
47	0xbd0eb321	-0.0348388
48	0xbb0bc240	-0.0021325499
49	0xb8a92c00	-8.0667436e-05
50	0x3c4918c0	0.012273967
51	0xbb9ef370	-0.0048507974
52	0x3ce3bec2	0.027800921
53	0xbc79d2ea	-0.01524804
54	0xbc58b958	-0.013227783
55	0xbc2bf24c	-0.01049478
56	0x3c014500	0.007889986
57	0x3d11094f	0.035409268
58	0xbb0544f0	-0.002033528
59	0x3d0b4811	0.034004275
60	0x3d0e32f7	0.034716573
61	0xbcbc7ed2	-0.023009691
62	0xbb78da00	-0.0037971735
63	0xbcaae753	-0.020862257
64	0x3c969942	0.018383626
65	0xbc7e902c	-0.015537303
66	0x3c5ce134	0.013481427
67	0x3b2d09f0	0.0026403628
68	0xbcedaa76	-0.029011946
69	0xbcf36580	-0.029711485
70	0xbd30ce5b	-0.043165546
71	0xbcca848a	-0.024721403
72	0x3c4a4630	0.012345836
73	0x3b3075c0	0.0026925653
74	0x3d08251f	0.033238526
75	0xbd1f2c44	-0.038860574
76	0xbaa94540	-0.0012914315
77	0xbd224f9b	-0.0396267
78	0x3987a200	0.00025869906
79	0x3c83e768	0.016101554
80	0xbd2261d7	-0.03964409
81	0x3d1fde1f	0.03903019
82	0xbc60e452	-0.013726311
83	0x3d2063c1	0.039157633
84	0xbbf31308	-0.00741804
85	0x3ccd63d2	0.025072012
86	0x3d248f79	0.04017589
87	0xbc83cf06	-0.016089927
88	0xbc300378	-0.0107430145
89	0x3cbde662	0.023181144
90	0xbd1af9ec	-0.037836
91	0x3cd64d02	0.026159767
92	0xbce366bb	-0.027758947
93	0x3d281fc7	0.04104593
94	0xbced4481	-0.02896333
95	0xbc94fba9	-0.018186407
96	0x3d0712f1	0.03297705
97	0xbc9da079	-0.019241558
98	0x3d1b2935	0.037881095
99	0x3cf916f6	0.030406456
100	0x3d257429	0.040393982
101	0xbd2f7573	-0.042836618
102	0x3a01d880	0.00049532205
103	0xbc6e28ac	-0.014536064
104	0x3c2c7a54	0.010527212
105	0xbd08adc9	-0.03336886
106	0x3c947494	0.018121995
107	0xbb093580	-0.002093643
108	0xbcab21af	-0.020890085
109	0xbd22d87c	-0.039757237
110	0x3cbd5ef2	0.023116563
111	0xbc830610	-0.015994102
112	0x3d0591e3	0.03260983
113	0x3c00e56c	0.007867198
114	0x3c5c389c	0.013441231
115	0xbbdba228	-0.00670268
116	0xbbc89aa8	-0.006121952
117	0xbc75f9de	-0.015013186
118	0xbd1cbeab	-0.038267773
119	0x3ce39cc6	0.027784716
120	0xbce3fd96	-0.02783088
121	0x3cd3027e	0.025758024
122	0xbc7437f8	-0.014905922
123	0x3ce2ce56	0.02768628
124	0x3d1b2339	0.037875388
125	0xbcdd6cd1	-0.027029427
126	0x3d1578e7	0.036492255
127	0x3a8d2e20	0.0010771193
128	0xbd0a494a	-0.0337613
129	0x3c93c9d6	0.018040579
130	0x3ccd0022	0.025024477
131	0x3d1f9217	0.03895768
132	0xbd2c50e4	-0.04206933
133	0x3d237421	0.03990567
134	0x3d093b69	0.033503924
135	0x3d321471	0.043476526
136	0x3cc55036	0.0240861
137	0xbcaffde2	-0.021483365
138	0x3d0952c9	0.033526216
139	0x3d256fc7	0.040389802
140	0xbc8a6ec4	-0.01689852
141	0xbbecb748	-0.0072239973
142	0x3d0da749	0.034583364
143	0x3d11b7a7	0.035575535
144	0x3cef286a	0.029194076
145	0x3d0aaf4b	0.03385858
146	0xbcba0d14	-0.022711314
147	0xbbf9d418	-0.0076241605
148	0xbc90a33d	-0.017655963
149	0x3cbc2a4e	0.022969391
150	0x3c3472f4	0.011013735
151	0xbd0bd435	-0.034137923
152	0xbbb5e7b8	-0.0055513047
153	0xbd139cf6	-0.03603836
154	0xbd2a5c3f	-0.04159188
155	0x3d2505b3	0.04028864
156	0xbcb61cf1	-0.022230597
157	0x3ca196ae	0.01972517
158	0xbc213c8c	-0.009841096
159	0xbc12a008	-0.008949287
160	0xb7ef7000	-2.8543174e-05
161	0x3d0d2e95	0.034468252
162	0xbbc85500	-0.0061136484
163	0x3d15c98b	0.03656916
164	0x3cd3d4e6	0.025858354
165	0x3cf85c96	0.030317586
166	0xbd242c7a	-0.04008148
167	0xbca949a0	-0.02066499
168	0xbd137b19	-0.036006067
169	0xbc19c928	-0.009386338
170	0xbc15f8ec	-0.009153586
171	0x3c1322a0	0.008980423
172	0x3d223021	0.03959668
173	0x3ca28562	0.019838993
174	0xbcfbed68	-0.030752853
175	0xbce30cd7	-0.027716083
176	0x3d08b04f	0.033371266
177	0x3b9027b8	0.004399266
178	0x3c4c8e28	0.012485065
179	0xbcbd5be7	-0.023115112
180	0xbbb099f0	-0.0053894445
181	0x3c4e25fc	0.012582298
182	0xbced9436	-0.029001337
183	0x3cec49e6	0.028843831
184	0x3cb46b7a	0.022023905
185	0xbcd32182	-0.025772814
186	0xbc947714	-0.018123187
187	0xbc2a3b38	-0.010390095
188	0x3be15ee8	0.006877769
189	0xbc84cd92	-0.016211305
190	0x3d2d2abb	0.04227708
191	0xbd2e5c08	-0.042568237
192	0xbccc9fc3	-0.024978524
193	0xbcdbbfec	-0.026824914
194	0x3c43c6bc	0.011949237
195	0x3bcd80d8	0.006271463
196	0xbc4e548c	-0.0125934
197	0x3d1a7e0f	0.037717875
198	0xbd1c43f8	-0.038150758
199	0x3c7f3380	0.015576243
200	0xbcc7365d	-0.024317915
201	0xbc24e0ec	-0.010063391
202	0xbd2e525a	-0.042559005
203	0xbd0721d8	-0.03299126
204	0xbd1995f1	-0.03749651
205	0x3c9df2b2	0.019280765
206	0xbc87f2a8	-0.0165952
207	0x3cbd61fa	0.023118008
208	0xbcc434db	-0.023950985
209	0xbc336694	-0.0109497495
210	0x3baf4b78	0.0053495727
211	0x3d17ae39	0.037031386
212	0xbc432610	-0.01191093
213	0x3cd1e1b6	0.025620323
214	0x3c47c0a8	0.012191929
215	0x3cdc315e	0.026879009
216	0x3ce4b3ea	0.027917821
217	0x3c92ebcc	0.017934702
218	0xbc5a57f4	-0.013326634
219	0xbc4b3968	-0.012403823
220	0x3c8cf12e	0.017204847
221	0x3cc55392	0.024087701
222	0xbb1a9600	-0.0023587942
223	0x3cb57b2a	0.022153456
224	0xbcd9cf34	-0.02658806
225	0x3ccc10e6	0.024910402
226	0xbbb1b5c8	-0.0054232813
227	0xbcf92513	-0.030413186
228	0xbcafe8a8	-0.021473244
229	0xbd0a3e80	-0.03375101
230	0x3c120f18	0.008914731
231	0xbcd6b5ff	-0.02620983
232	0xbc4f596c	-0.012655597
233	0xbb3577e0	-0.002768986
234	0xbcdce6da	-0.026965547
235	0x3a94bdc0	0.0011348054
236	0xbbb7ca00	-0.005608797
237	0x3c655884	0.013998155
238	0x3d02c50d	0.031926204
239	0xbcda8d34	-0.026678659
240	0x3cc5f17a	0.024162997
241	0xba757440	-0.0009363331
242	0xbcceeccb	-0.025259396
243	0xbca43087	-0.02004267
244	0x3c384e20	0.011249095
245	0x3c16c33c	0.009201821
246	0xbabb1a60	-0.0014274828
247	0xbcb43d45	-0.022001872
248	0x3cb69316	0.022286933
249	0x3bd6dd30	0.0065571293
250	0xbd2ff979	-0.042962525
251	0xbbffed78	-0.007810291
252	0xbc447384	-0.011990432
253	0xbc9a7c40	-0.018858075
254	0xbcc8d271	-0.024514409
255	0xbd12daab	-0.03585307
